src/weights.pt (torch, 541739 bytes, 11 tensors)

encoder.cnn.weight f4 [64, 40, 20]
00000000: 360e 0a3d 3455 e23b 58f7 e83c 57f6 a83c
00000010: 5b17 40bc 7c68 ef3a b1ee a4bb 6d34 ea3c
00000020: fc5f 723c 3a6b 6b3d 408a 5b3d 9373 d13c
00000030: bf4e 4e3b 5248 3bbc e3dc 7abb c0d5 94bc
00000040: de06 bf3a b766 3bbd 051a 623c fe13 11bd
00000050: 658a 333d b6be f13b a0f6 983c 2263 e23b
00000060: 2a3c d5bb 30b1 3f3b 432d fe3c 84f9 7b3c
00000070: c3eb d53c d845 8cbc 0861 bd3c 8fab 743a
00000080: 9a5a 90bb a65c 15bc 0e58 ce3a 5f21 4d3c
00000090: 0ddf dbbc dcf8 16bd 3144 dcbc b82c e6bc
000000a0: 5365 8b3d 5dc4 b93c 2a04 183a 7cb8 043d
000000b0: 840f bf3c 0c88 06bc 9693 84bc b2d6 82bc
000000c0: 53db f83b 9aeb 22bd 4c72 34bd fe88 503c
000000d0: d6b8 e13c fa86 e6bb 50f9 0bbd d895 2ebc
000000e0: 898c f4bc e99b 33bc 56f4 b53b e2fa bd3c
000000f0: fe02 683d 22ee 3a3d 4f64 993c 4b26 3cbd
00000100: 0d19 42bd 7381 25bd 4d5f 70bd f2b6 56bd
00000110: 35d8 31bc 2a6b 643b 4c85 afbc 7bd6 d9bc
00000120: 62e6 993c 557f 6bbc b365 9bbb 3992 083d
00000130: a8b7 623c 4ec4 ca3c 1395 493d f198 5e3d
00000140: 586b c43d 1eea 5f3c 71dd 32bb 552a 09bd
00000150: 6b93 85bd 8e62 8fbd cfd7 1fbd ce29 1dbd
00000160: e356 1bbd 419a dfba 510a 69bd 0ba1 0ebd
00000170: 3549 843c 9eb6 3c3c e45b 2bbc 4d93 4f3b
00000180: 01e3 c43c 2c51 b33d 080c bc3d 5705 f43d
00000190: ba5a 023d 3ed4 8cbb 7ece 14bd 9f5a 43bd
000001a0: b912 a8bd fb8c d3bd 343a 3dbd bbe1 8cbd
000001b0: f721 71bd 4692 0abc 261c bfbc 8376 1a3d
000001c0: 028e 213d 6b0f 113d 7a93 133d e93b 37bb
000001d0: 086b 063c 8ddf 683c 523f 223c a5b1 283d
000001e0: 34a8 983d b587 df3c 9aab a03c 2fd1 72bd
000001f0: 33a4 6dbd 184d a7bd e853 bcbd a7f4 8ebd
00000200: b084 7cbc d250 963a c987 e2bc 7567 573b
00000210: 823d 10bc c4b3 193d da07 033d 25ba ab3a
00000220: 2544 02bd daee 2c3c 904a fd3c b204 8c3c
00000230: 576b 943c d1e8 8c3c 1712 7abc 1461 58bd
00000240: a2e5 b3bd efda a9bd 34ef 4abd bbc4 3bbd
00000250: dccb 0a3b e13e ffbb 2db9 3dbc 16af d9bc
00000260: fb18 d8bc 9037 8e3c a993 d23c 736d 86bb
00000270: 3d3e a0bc c329 1d3d 87d7 843d 9b08 d93c
00000280: 00de 6cbc 8b87 09bc c6ad 21bd a4c2 70bd
00000290: 3e07 35bc d59b 44bd b641 94bc 4891 b8bc
000002a0: 9201 063d 39b5 d33c 049b 323d ca41 933c
000002b0: a532 8f3d 04cb 233d ef4c 113b 6a44 3f3c
000002c0: 6339 1ebc c3ec 483c e1c6 e73c f2f2 6cbb
000002d0: 27d0 f13c d183 533c 4adf bcbb 751d d93b
000002e0: 5d5b 57bc 90d8 10bc 22d2 76bc b798 003d
000002f0: 1673 303d 32b1 403d 4a5d 893d 4379 b83d
00000300: 469f a93d b342 553b 7e54 db3c 87f6 263c
00000310: 9997 173d 973a 0d3d 3214 623d fcc1 9b3c
00000320: 9157 40bc c375 283c fc1a b7bc 49c5 13bd
00000330: 067e f3bc 414c 753b 626a bf3c ced2 1a3d
00000340: d950 553d 975e ac3d 91ab 743d 9fac 953d
00000350: dac9 c63c db35 593d c598 2d3c 0e1a 6abc
00000360: 2862 ae3c b2e7 cf3c 670d c83c 4e3a 523c
00000370: 0847 c9bc 0012 8ebc 7e9e d8bc 8d8f 9d3b
00000380: 8b92 a73c 2520 a63b 6270 2b3d c94c f23c
00000390: 668a 623c d30e 943c 7292 c53b 64db e43c
000003a0: 8645 373c 406f 283b cbba a9bb ba9a 98bc
000003b0: 2b08 ab3b afc9 e93b 6e4f 813d 4fe5 213d
000003c0: 2292 16bd d87f 03bd d003 06bd a602 bbbc
000003d0: ada7 a03b 0da6 523d 7e7d 473c a769 a5bb
000003e0: 849f 193c 5f98 033d eec2 6bbb cec4 e8bc
000003f0: c71d 30bd c2c5 f5bb 77b0 90bd fca3 5fbb
0.03370496 0.0069071297 0.028438255 0.020625276 -0.011724318 0.0018265392 -0.005033337 0.028589452
0.014793392 0.057475306 0.053598642 0.025567805 0.0031480042 -0.011430817 -0.0038278631 -0.01816833
0.001457419 -0.045752253 0.013800149 -0.035419457 0.043833155 0.007377471 0.018672287 0.00690879
-0.0065074163 0.00292499 0.031027442 0.015379313 0.026113397 -0.017123148 0.023117557 0.00093334256
-0.004405332 -0.009116327 0.0015742795 0.012520163 -0.026839757 -0.036858425 -0.026887985 -0.028097495
0.068064354 0.022676641 0.00057989603 0.0324025 0.023322828 -0.008211147 -0.016183656 -0.015971515
0.007594505 -0.03977547 -0.044054314 0.012727974 0.027553957 -0.0070351334 -0.03417331 -0.010655843
-0.029852169 -0.010962465 0.0055528088 0.02319092 0.05664348 0.045637257 0.018724589 -0.045934957
-0.04738717 -0.040406656 -0.058684636 -0.052420564 -0.01085477 0.0034853914 -0.021425866 -0.02659153
0.018786613 -0.01437362 -0.004742348 0.033342574 0.013837732 0.024751808 0.049214434 0.054345075
0.09590787 0.013666658 -0.0027292634 -0.033487637 -0.06522258 -0.0700122 -0.03902417 -0.038369946
-0.03792466 -0.0017059521 -0.056894604 -0.03482155 0.01614819 0.011518149 -0.01045892 0.0031673491
0.024034025 0.08755717 0.09181982 0.11915081 0.031824805 -0.004297762 -0.03632974 -0.047693845
-0.08206696 -0.10329624 -0.046198085 -0.06878992 -0.058870282 -0.008457726 -0.023328852 0.037710678
0.03944207 0.035415094 0.036029316 -0.0027959293 0.008204229 0.014213455 0.009902792 0.04118504
0.07453957 0.02728639 0.019613076 -0.059281524 -0.05801792 -0.08169001 -0.09195691 -0.069802575
-0.015412495 0.0011468178 -0.027652638 0.0032868062 -0.008803727 0.037524953 0.03198991 0.001310174
-0.03180327 0.0105549935 0.030919343 0.017092083 0.01811759 0.01720086 -0.015263102 -0.052826956
-0.08784033 -0.082937114 -0.049544528 -0.045841914 0.0021178639 -0.007789478 -0.011579794 -0.026572745
-0.0263791 0.017360479 0.025705175 -0.004102403 -0.019560928 0.038369905 0.06486421 0.026493361
-0.014457226 -0.008394132 -0.039472364 -0.058779374 -0.01104909 -0.048000176 -0.01809774 -0.022530213
0.03271634 0.02584325 0.043604866 0.017975707 0.069920816 0.039988533 0.00221711 0.011674026
-0.009657237 0.01226348 0.028293075 -0.003615555 0.0295182 0.012909845 -0.005763923 0.006625826
-0.013144341 -0.008840695 -0.015064748 0.03139564 0.043078505 0.047043987 0.067072466 0.09007504
0.08282332 0.0032540977 0.026773687 0.010190613 0.03700981 0.034479704 0.05519504 0.019013397
-0.011739627 0.010281983 -0.022351734 -0.036076818 -0.029723179 0.0037429484 0.023366157 0.037798695
0.052079055 0.08416479 0.05973393 0.073083155 0.024266172 0.053029876 0.010595505 -0.0142884385
0.021287039 0.025379036 0.024420453 0.012831284 -0.024570003 -0.017342567 -0.026442762 0.0048083724
0.02045562 0.00506975 0.041855223 0.02957763 0.013826942 0.018073475 0.0060294205 0.027936645
0.011186009 0.0025701076 -0.005179738 -0.018628467 0.0052194796 0.0071346383 0.06313978 0.039525326
-0.036760457 -0.032104343 -0.03271848 -0.022828411 0.004902801 0.05142789 0.012175916 -0.005047995
0.00937641 0.032127734 -0.0035974341 -0.028414156 -0.042997148 -0.007500381 -0.07064908 -0.0034124842

encoder.cnn.bias f4 [64]
00000000: c222 6cbc fbac c6bd f6cc cabc c9f2 193d
00000010: 4c33 513d 4462 1bbe 1d06 51bc 69b1 dfbc
00000020: cf04 fc3c 2376 91bd d6f5 9e3d 8f6c 693d
00000030: b6d7 5a3d 6724 77bd adb5 673c 6878 ee3b
00000040: 6494 c1bd 4b85 133d 745e b5bc d180 60bd
00000050: 20c0 6e3d fbcb 473d 402b c1bc 32e5 dbbc
00000060: faf2 c93c b51a 13bd ebfd 34bc 44b3 ac3c
00000070: 4475 893c 7dbe bc3c 2d7a 6cbc d725 5e3d
00000080: dc5a b03d 6d47 e6bc bcb4 debc 41f8 3cbd
00000090: cca5 4dbd 78bb 85bd 87b9 dcbc bf96 60bd
000000a0: 55f2 a43c 3671 4ebd 0978 bebb 0b9d 6f3c
000000b0: 17cc 7b3d 4761 6b3d 7078 54bd ee72 56bd
000000c0: 52f5 903d 168a f9bb 7b9f c0bd 71ac 17bd
000000d0: e558 9ebd 4983 35bd 0573 96bb dfce 3b3d
000000e0: f92c d0bd 3c8a 5dbc e761 273d 831f a23d
000000f0: e12c 113c 4102 ee3c defd 14bd 9d60 423d
-0.014412584 -0.09700962 -0.024755936 0.037585054 0.05107431 -0.15174204 -0.012757805 -0.027306275
0.030764012 -0.07102611 0.07761733 0.056988295 0.053428374 -0.06033745 0.014142436 0.007277537
-0.094521314 0.03601579 -0.022139765 -0.05481035 0.058288693 0.048778515 -0.023580194 -0.026842687
0.024651993 -0.03591414 -0.011046867 0.021081574 0.01677955 0.02304005 -0.014433426 0.054235306
0.0861108 -0.02811023 -0.02718579 -0.04613519 -0.050206944 -0.065298975 -0.026943935 -0.054831263
0.020135084 -0.050400935 -0.005812649 0.014624844 0.061473932 0.057465818 -0.05187267 -0.0523557
0.07078041 -0.007615338 -0.094054185 -0.037029687 -0.07731799 -0.044314656 -0.004591348 0.045851585
-0.10164828 -0.013521727 0.04086485 0.07916167 0.008860798 0.02905381 -0.03637492 0.04745542

encoder.gru.weight_ih_l0 f4 [384, 64]
00000000: 0681 2b3c 9c12 d5bd 661e 73bd 4b9b d63c
00000010: 8519 6e3d d0c3 35bc 4ada 373d 7599 f63c
00000020: 4043 a9bd 33a4 72bd d5a4 18bd 5ed8 58bd
00000030: 53c2 90bc 47b6 09be c553 4a3d cfb3 933d
00000040: 4f8e d13c 6448 f2bc e154 9b3d eee1 df3c
00000050: cd30 a53c 2eb5 093d 5b55 983d 00d1 b13d
00000060: 3725 db3c 311b 8f3d afc6 a13d 4947 8e3d
00000070: 3fde 3c3d 1d70 b9bb e5ff a0bc 6485 9d3d
00000080: f746 12bb 34bb dcbc d452 3c3d 17ad 2dbe
00000090: 6735 73bd 4c8f 913d f8a4 65bd d83e be3d
000000a0: a063 8b3d 6e26 2c3d bdb1 6dbc b106 633d
000000b0: d996 ab3c 92ff 143d 1c6f c23d a6b1 c03d
000000c0: 4384 4a3d d61b e4bd e813 b33d 673e c83d
000000d0: e12a cc3c c068 79bb b1b2 8a3b c6f8 ce3b
000000e0: d93e 6cbd c54c a0bd b6e0 c13c 37e2 f23d
000000f0: 2032 803d 6ca3 933d 29df 193d d813 96bd
00000100: 84a3 76bd cfb1 2abd 58cc c6bd 8c6f ab3c
00000110: 2ac1 55bd 6bd1 f6bc ccbb 3abc 2264 623b
00000120: f609 a7bd e7d5 103d a253 fe3a a7a7 c9bd
00000130: 8957 0c3c a7b7 9ebd 6fa3 1dbd 48b3 8a3d
00000140: b9c7 083c 5b33 f8bd 33ab a13c 3504 90bd
00000150: 77df 71bc df11 103d 1183 08bd f9bb cbbd
00000160: b55a 15bd 3d54 d13c 2e4c f13d c16e 303c
00000170: 8f8f 5a3b ede2 e9bd 47dd e63d 3885 863d
00000180: dc26 16bd 1387 2ebc acf1 aabd 91b0 b33d
00000190: ece3 ac3d 9130 e93c c8e4 833d 5d27 31bc
000001a0: 7e60 693d 56d3 e3bb 52c4 983b a0e3 7f3d
000001b0: 440a 533c 27e7 d8bb 77ac ba3d 765e 33bc
000001c0: 80a8 22bc 628b e23d 44f3 90b9 f729 55bd
000001d0: 1a34 543d ef94 a73d 83e6 203d d4f1 563d
000001e0: 4917 8d3d 62fa 9a3c 4616 0bbd a171 d3bd
000001f0: bb9a 903d e4dd 0fbb b440 9bbd 5ea6 943b
00000200: e424 c33b 8a2e e5bc c3ff bfbc c62a 9abd
00000210: 9659 123e fa8d 90bd 627f e1b9 b3bd 2a3d
00000220: 13ae 943d 14f0 87bc e141 9e3c d236 163e
00000230: 279e a6bc d51e 24bd 9bf3 0c3d 5876 60bd
00000240: bd8a 8bbd 0e4c d63b 6868 8bbd 8a51 1dbc
00000250: 65a4 083a ba64 aa3c 9b6d edbd eaf6 eebc
00000260: 3bf0 83bc f792 9dbc c9be c73b 0611 f83d
00000270: 96a6 5fbd 0df0 933d e252 d2bc acdf c43d
00000280: f429 083d b8a7 5ebd 3f59 8a3c 1326 363d
00000290: 9fd8 97bc b255 2cbc 6e9c 60bd 1fbd 183c
000002a0: 1b58 833d c5aa bf3d 93c3 9bbc 83ea 81bd
000002b0: 6e46 c83d 2a86 c63c 3cda 64bd 9822 5abb
000002c0: c89c 7c3d e39b 1d3d 46d2 2cbd c594 273c
000002d0: af85 c43d 01e1 203c 0c12 e83c cdd9 70bd
000002e0: d053 68bd d850 4ebd a6a1 1bbd 729f 5d3d
000002f0: 8129 c2bb e18c 3fbc 4f7c 10bb 80fb 41bd
00000300: ffde 1f3c 476a a8bd 4ba9 8cbd 13c0 803d
00000310: 27c0 b0bb 3d00 cb3b 59d9 a7bd b107 973d
00000320: ba86 07be b36b 03bd 5547 873b eac8 1bbd
00000330: f11a c1bd 3ce5 ba3d 3daa 29bc 4062 403d
00000340: 86cb a03d 7f3e d43c cf43 c23b 15c5 5dbd
00000350: f1ae cabd 17a1 53bc e158 8a3d 5cad 38bd
00000360: acda f53b cace 773d 5f0b 81bd 25f7 173e
00000370: f624 0abc 4d83 a2bd 8932 db3d 2331 ca3b
00000380: e99f ac3d cb96 af3c 700a 8bbd d813 c7bb
00000390: 280b 6b3d d187 90bd 6b5e 8abd 0c50 c4bc
000003a0: 2104 25bd f18c 5d3d 1bcb 533d 721b 2d3c
000003b0: 3cf9 ffbc afea 8e3d 17fd f13b 0c86 a23c
000003c0: 6993 ebbc ca30 f6bc 8531 993d 2722 303e
000003d0: f7e7 dabc 02b5 443d e548 593d 21b2 873c
000003e0: 676e 843d 5745 a3bc 78b5 e3bd fe3a 27bd
000003f0: a69c 47bc f2f3 afbc d683 53bc 848d 093d
0.010467773 -0.1040394 -0.059355162 0.026197096 0.058129806 -0.011094049 0.04488591 0.03010247
-0.0826478 -0.059238624 -0.03726657 -0.05294072 -0.017670786 -0.1344844 0.049396295 0.0721203
0.025580553 -0.029575534 0.07584549 0.027329411 0.020164872 0.033620052 0.07438155 0.08682442
0.026751144 0.06987608 0.07899224 0.0694719 0.046110388 -0.005659117 -0.01965327 0.07691458
-0.002232013 -0.026944734 0.04597743 -0.1696056 -0.0593771 0.0710741 -0.05606553 0.0928933
0.06806111 0.042028837 -0.014507708 0.055426303 0.020945953 0.036376543 0.09493849 0.09408884
0.04944254 -0.11138122 0.08744031 0.09777527 0.02492279 -0.003805682 0.0042327275 0.006316277
-0.057677124 -0.078271426 0.02366672 0.11859553 0.062595606 0.072089046 0.037566338 -0.07328004
-0.060214534 -0.041673478 -0.09706944 0.020927213 -0.05218617 -0.030129155 -0.011397313 0.0034544547
-0.08156197 0.035360243 0.0019403587 -0.0984643 0.008565792 -0.07749873 -0.03848594 0.067724764
0.008348399 -0.1211917 0.019734954 -0.070320524 -0.014762751 0.035173293 -0.03332812 -0.09947962
-0.036463458 0.025552863 0.11782108 0.010768593 0.0033349728 -0.11420236 0.11272674 0.06568378
-0.036658153 -0.010652321 -0.083468765 0.08773912 0.0844191 0.028465541 0.06440121 -0.010812608
0.056976788 -0.0069526834 0.004662075 0.06247294 0.0128808655 -0.0066193524 0.09114926 -0.010947814
-0.009927869 0.110617414 -0.00027647067 -0.052041974 0.0518075 0.08182704 0.039282333 0.05247672
0.06889207 0.01891822 -0.03395679 -0.10324407 0.070607625 -0.0021952325 -0.075807005 0.004536434
0.0059553254 -0.027976293 -0.023437386 -0.0752769 0.14291987 -0.0705833 -0.00043010252 0.041684818
0.072597645 -0.01659397 0.019318523 0.1466935 -0.020339085 -0.040068466 0.034412008 -0.05480036
-0.068135716 0.006539828 -0.06807023 -0.00960196 0.0005212485 0.020799983 -0.11593171 -0.029170472
-0.016105762 -0.019235117 0.0060957414 0.12112622 -0.054602228 0.072235204 -0.025674287 0.096129745
0.033243135 -0.054359168 0.016888259 0.044469904 -0.01853591 -0.010518478 -0.054836683 0.009322434
0.06413289 0.093587436 -0.019014155 -0.06343558 0.097790584 0.024233896 -0.055872187 -0.003328478
0.061672956 0.038478743 -0.04219272 0.0102283405 0.095958106 0.00981927 0.028328918 -0.05880146
-0.056720555 -0.050370067 -0.037995957 0.054107137 -0.005925358 -0.011691303 -0.002204675 -0.04735899
0.009757756 -0.08223396 -0.068682276 0.06286635 -0.005394 0.0061950968 -0.08195753 0.07374514
-0.13234988 -0.03208513 0.0041283765 -0.038033403 -0.09428967 0.09125754 -0.010355529 0.0469687
0.07851319 0.025908707 0.0059284936 -0.05414303 -0.09896649 -0.012916825 0.067552336 -0.045087203
0.0075028744 0.060499944 -0.06300997 0.14840372 -0.008431664 -0.079352 0.10702998 0.0061704083
0.08428938 0.021434208 -0.067891 -0.0060753636 0.057383686 -0.07057155 -0.0675629 -0.02396395
-0.04028714 0.05408949 0.05170737 0.0105656255 -0.031246774 0.06978356 0.007384907 0.01983931
-0.028756814 -0.030052561 0.07480148 0.17200528 -0.026721938 0.048024185 0.053048033 0.01656443
0.0646637 -0.019930525 -0.11118597 -0.040827744 -0.012183344 -0.021478627 -0.01290985 0.033582225

encoder.gru.weight_hh_l0 f4 [384, 128]
00000000: 2150 32bd ba59 c03d eb8a c2bd 9895 b33c
00000010: c088 6d3c 68ee da3c 5b21 a53c 13f3 9a3a
00000020: a3bf 1c3d 0267 4b3d 4830 cabd c81b b6bd
00000030: 009d 0ebe 6234 453d 1379 a4bd 28cc 43bc
00000040: d935 0e3e 6a8c 883c c309 7b3c 56fc 9a3d
00000050: 3ec5 653d 1b34 eb3d 3fbd 09bc 1839 bcbb
00000060: 228e 33bd 4294 efbd 220d ee3c 1c63 5d3c
00000070: 6ed1 623d 95a3 53bd ca23 393d 9896 d9bd
00000080: db1b 1dbd c943 813d 72f9 85bd a5ed 43bd
00000090: d0f0 e43d f7d3 d63d 174b 9d3d 98a7 58bd
000000a0: 2234 f8bc 313e 38bc a110 9dbc 8b99 94bc
000000b0: 7163 de3b 29af cb3b 5ae4 5cbd a123 2fbd
000000c0: d4d2 9d3b 4dd2 bd3c 2681 563d 4761 02be
000000d0: e497 1ebd 7287 2abc 1b61 1cbd 7b85 c8bd
000000e0: 69d1 113d 3f00 b03d 3953 5e3d 3bf9 60bc
000000f0: e161 7d3d 0fe7 d63c 4b5e 30bd 6343 83bd
00000100: 4a80 a3bd e62c 0ebb 3892 8f3d c538 f9bd
00000110: a0a2 c5bd 3b5e 87bc 2b4a 70bd 28a6 273c
00000120: 7684 1f3d 97dc 54bd 9545 123e 97dc 3c3d
00000130: cac2 c3bd 3eca d6bd b131 143e 8e09 e2bc
00000140: 1bd7 dcbc 8d53 0fbb fd51 66bc e26b ddbc
00000150: aaaa c7bc b7ee cb3d a3f8 a2bc 894c 033e
00000160: 4e2e 73bc 6120 e0bd b182 90bd 7bbd 59bd
00000170: 8139 d7bc ccc3 013d 12ea 1bbc 6001 af3c
00000180: 9abc b8bc 79c1 e83d 1110 603c ad53 a7bc
00000190: 0692 85bd 7c08 b43d 650f e7bc e6d3 c5bd
000001a0: ab08 6e3d 4a17 513d f5a2 9f3d 1738 013d
000001b0: e37a 7f3d f768 983b bca6 b33c 52da 0b3d
000001c0: 8279 bc3c ba23 42bc b98a b43c 03a2 8bbd
000001d0: daa2 a4bc e3fd 8cbd 7fe9 1bbd 10e8 eebd
000001e0: 5357 60bb 2112 90bd fbbd 33bd a0c2 1abd
000001f0: 133e c0bd d22b 083d 7366 41bc af06 aebd
00000200: 7ad6 4ebd bc94 adbc 0520 253c 5f41 533d
00000210: 2aa4 aa3d 7055 9dbd da6f ec3c 2c3d 15ba
00000220: 6691 6abd cb0f 60bd f0c5 64bd adb6 d6bd
00000230: accf e73c e258 c3bb 5143 9b3d 5f98 30bd
00000240: df40 803d b8a3 973d c5b9 aebd 2f32 9d3d
00000250: 00fd 93bd 16a5 40bd aae6 6dbc d798 6f3b
00000260: 588c 943c 67b1 c13b 4819 053d 791e 0abd
00000270: 593d 6b3b a709 10bb 6c2f 5dbc b7a9 d6bc
00000280: 1fca 063d 429a 90bc d23f a93d 5042 e23c
00000290: f91d 04bd c7ee b7bc f073 5d3d 4574 55bd
000002a0: 4fb7 b43d a4a3 a63d 503c 86bc e447 aabd
000002b0: 9b0d 823b 645d 543c f23e 4ebc 6e41 15bd
000002c0: b1c5 1bbb 531b f43c 1b56 e7bc 7145 c23c
000002d0: eeb0 253d a320 83bd dc08 f5bc 7aec e2bd
000002e0: ed22 783c d021 e23c be7e 353d 9d06 ae3b
000002f0: ad30 cbbc 0d97 a13d a3c5 92bb d31c b03d
00000300: eb71 e7bc bdb9 d43d d5bd 19bd 2e54 c33d
00000310: d856 623c f952 003d fd93 9fbc 6eb3 f9bc
00000320: c9ef 493c ea7a bd3d 8fc6 e03b ea8f 7ebd
00000330: c2a5 90bd 67b2 b4bc 551c 953c f9c7 133c
00000340: 48bb 3bbc 6137 db3d c619 383d 89b5 813d
00000350: 7f60 49bd 31b9 f0bd 817d 503d c25d c6bc
00000360: 58b2 a7bc ed43 c83d a095 15bb 0894 df3c
00000370: aac1 a8bd 7b40 983c c987 b9bd 7e79 b33d
00000380: b905 c0bd e62e 60bd 1d87 bb3d 546e 83bc
00000390: 182f 13bd 76f3 40bd 0e9b debb bff3 d9bc
000003a0: 7a78 95bd be49 66bd 0150 d3bc 3fc2 593d
000003b0: ecdb 00bd 53cd db3d 2596 4dbd 2d8a 5ebd
000003c0: 1c6e 2b3d d54f 4d3d 53df c33c 0beb 26bd
000003d0: c609 55bc 4924 8e3c 17cd 20bd 415f ddbc
000003e0: 84b1 773d 041b 17bc da93 62bd 7a11 fa3c
000003f0: dde2 b03c bf5c b53c 43ad 583d 1c8b 933d
-0.043533448 0.09392114 -0.09499153 0.021921918 0.014497936 0.02672501 0.020157507 0.0011821709
0.038268697 0.049658783 -0.0987249 -0.088920176 -0.13927078 0.04814566 -0.080309056 -0.01195053
0.13887729 0.016668517 0.015322152 0.075676605 0.056096308 0.11484548 -0.008406936 -0.005744111
-0.04383672 -0.116982 0.029058997 0.013512399 0.05537551 -0.051669676 0.045200147 -0.106244266
-0.038356643 0.06311757 -0.065417185 -0.047834057 0.11178744 0.10489648 0.07680338 -0.052894205
-0.030298296 -0.011245296 -0.019172968 -0.018139621 0.0067867567 0.006215949 -0.05392871 -0.042758588
0.0048163924 0.023171568 0.05236926 -0.12732421 -0.038719073 -0.010408269 -0.038178544 -0.097910844
0.0356001 0.08593797 0.054278586 -0.013731296 0.061860923 0.026233224 -0.043058675 -0.06409337
-0.079834536 -0.0021694242 0.07010311 -0.12169031 -0.09650159 -0.016524425 -0.058664482 0.010232486
0.038944684 -0.051968183 0.14284356 0.04610881 -0.095586374 -0.104877934 0.14472081 -0.027592447
-0.026958039 -0.0021869869 -0.0140576335 -0.027028982 -0.024373371 0.099576406 -0.01989395 0.12822165
-0.014842583 -0.10943676 -0.070561774 -0.05315922 -0.026272537 0.031680867 -0.009516256 0.02136296
-0.02255087 0.11365027 0.0136757055 -0.020425642 -0.065219924 0.08790681 -0.028205583 -0.09659557
0.058113735 0.0510476 0.077947535 0.031547632 0.062373053 0.0046511847 0.021930091 0.034143753
0.023007158 -0.011849338 0.022038804 -0.06818011 -0.020097185 -0.068843625 -0.038064476 -0.11665356
-0.0034231737 -0.07034708 -0.04388235 -0.037783265 -0.0938684 0.033244915 -0.011804211 -0.084973685
-0.05049751 -0.021189086 0.010078435 0.051576015 0.08332093 -0.076823115 0.028861929 -0.0005693014
-0.05726757 -0.05470256 -0.05585283 -0.104840614 0.028297268 -0.0059615234 0.07581199 -0.043114062
0.06262373 0.07404274 -0.085315265 0.076755874 -0.0722599 -0.04703244 -0.014520327 0.0036559606
0.018133327 0.0059110406 0.032494813 -0.033720467 0.003589472 -0.002197841 -0.013500076 -0.026203973
0.0329076 -0.01765168 0.08264126 0.02761951 -0.032255147 -0.022452725 0.054065645 -0.052112836
0.08824026 0.08136681 -0.016386181 -0.08314493 0.003968907 0.012961719 -0.0125882495 -0.03643935
-0.0023768956 0.029798185 -0.0282393 0.023714753 0.040451936 -0.06402709 -0.029911451 -0.110802606
0.015145046 0.027604014 0.044310324 0.005310847 -0.024803484 0.07890139 -0.0044791265 0.08599248
-0.028252563 0.10386989 -0.037534554 0.095375404 0.0138146505 0.03132913 -0.019479746 -0.030481067
0.012325236 0.092519596 0.0068596075 -0.062148966 -0.07062866 -0.022057725 0.018201986 0.009019845
-0.011458226 0.10703922 0.044946454 0.06333453 -0.04916429 -0.117540725 0.05090094 -0.02421463
-0.020470783 0.09778581 -0.002282478 0.027292266 -0.082400635 0.018585434 -0.09059102 0.08763407
-0.093760915 -0.054732226 0.0915663 -0.01604382 -0.035933584 -0.047107182 -0.0067933863 -0.026605485
-0.0729837 -0.05622267 -0.025794985 0.053163763 -0.031459734 0.10732522 -0.050192017 -0.054330993
0.041853055 0.050124962 0.0239102 -0.0407515 -0.013002818 0.017351286 -0.03925809 -0.02702296
0.060472026 -0.00922275 -0.055316783 0.030525912 0.021592552 0.022138951 0.05289961 0.072042674

encoder.gru.bias_ih_l0 f4 [384]
00000000: 6567 b53c e0ad 623d 9d2c c1b7 d3c3 553c
00000010: d655 c8bb 3d48 7a3c bbea 883d 55bd 223d
00000020: 5735 98bc 206a 7a3d ef85 f33c f158 a33d
00000030: 7f5a 0cbc f188 e33c dcd8 2cbd c1d1 8a3b
00000040: 6750 e63b 787b aa3d 7ffa 8d3c f011 94bd
00000050: 520d 9bbd 4915 c63d b7de 6f3d 658e 22bd
00000060: 9cca ca3d 16ef 25bd 040e 9ebc 0d39 1a3c
00000070: 7b01 6c3c a7a2 3cbc 28bf d33c 5b12 b53b
00000080: c887 7cbd 86d6 8dbd 615e 8bba 28c5 e23c
00000090: ec1b 6a3d 8d28 af3d 9f0e 2dbd 6b9d b33c
000000a0: f836 9c3d d07d 5d3d c020 c8bc 00e7 8fbb
000000b0: a45b 9d3d b767 803d 8285 243d 7f0d 27bd
000000c0: 2976 593d 7e9f 3c3d 67be 353e a27c 0ebd
000000d0: 48e3 03bd 9551 42bd a035 d2bc c09e 75bd
000000e0: be4a 863d 15b0 74bd 89b3 07bd be42 aebb
000000f0: b29b b23d fc2e 28bb 79a3 5ebd 1f50 4b3e
00000100: edf9 efbd 4e81 c83d 0232 8c3d 116e 3cbd
00000110: 531e c73d 84b3 07bd 3edf a8bd 6f8c 32bd
00000120: f306 e53d c912 763b 3411 b0bd 9c6f 8fbd
00000130: 6412 043d 33a6 333c c927 b9bb 4f89 3dbd
00000140: ebae 833d 3f6c 003b 1a22 333c b0c0 f53b
00000150: 71d2 7f3d c753 6ebc fd65 b53d 2d7e c63d
00000160: 0d6a 63bc a872 13bd 17b1 93bd 18f4 7b3d
00000170: ba96 1fbb 4e96 a4bd 6b87 983d 2cf5 843d
00000180: 9f19 75bd 6b5e 2d3d 77cf 5a3d 301b 6bbd
00000190: 2195 b1bb 1d61 9dbd 9c82 523d 130d b4bd
000001a0: 7270 3e3d 2cc7 ab3d ce88 373d a177 edbc
000001b0: 6a1e 5c3d 12d4 9bbd db6a 03bd 73a2 be3d
000001c0: 6146 b7bc 74f2 7a3d 8541 65bd c077 453c
000001d0: b78e c9bd ad53 58bc bdd0 a3bd f340 893d
000001e0: 3b78 9a3d 219f 043d 70ae 9d3d ff41 bb3d
000001f0: 0619 813d 6b9d 1f3e 2434 b43d 3bf9 8f3d
00000200: 6de3 70bc 9794 a23b ccc9 e23d 80cf ab3d
00000210: cbb4 533d de3d 303d f4be fcbc 3b72 ae3d
00000220: 2989 ac3d d209 af3c e117 e73c 0a37 0a3e
00000230: a804 d13d 4f63 bd3d 8bd6 8a3d abff 463d
00000240: 1d62 bdbc 62c0 d53d 4ce6 89bc 7694 1f3e
00000250: a878 063e b881 f43c 9ec2 f33c c0ca cd3c
00000260: 3295 d73c db3f 493d 9af0 b4bc 4140 fabc
00000270: d3a8 d43d 0c95 89bd d37f 233d 2662 053c
00000280: b62c 1cbd b480 093e 2253 103d 27b3 8b3d
00000290: c14c 173e 0dd8 6b3d 636f deba 4714 21bd
000002a0: 2a3f 543c 9d46 1a3e 76bf 1b3c bb4b e03d
000002b0: 39b7 edba 91bb b1bb 0251 0f3e d103 c33d
000002c0: 998c 293c a308 523d 0678 b73d f699 0f3e
000002d0: cffb b73d a151 93ba c435 103e ae7e babb
000002e0: 4637 42bc 6a65 173d fdce 07bd 4426 9f3d
000002f0: 5981 60bd 1ea9 f23d 7c7a 6cbc 5d0c db3c
00000300: 075b d43d 2d9e e73d 91ff 9c3d 62ee 983d
00000310: 57fc 883d 5bf2 19bd eb11 67bd a44e fe3d
00000320: 7293 b43d 0e66 92bd 94be a63d 78cb dc3d
00000330: 8ce0 b03d a7b2 003d 9fe0 99ba 6e74 713d
00000340: 7279 463a c5ea 123d c4a9 763d 9b4c f13c
00000350: 0473 0cbd 67a4 7a3d d454 a3bc b0a9 ba3c
00000360: abff 953d 96ca 743d 8598 cbbc efe3 823d
00000370: cc69 7fbd 14a6 943d f064 3b3d 5a3e 3d3d
00000380: c524 6a3d ab21 b23d 2265 ff3d 17ad babd
00000390: 753c 423d caff 593c 9c39 90bd 3db3 103c
000003a0: 10f5 833d 04fd d1bd 3558 223d ddac b73d
000003b0: 9b05 ca3d 5c1e 0a3b 53d4 943d 196e 4b3c
000003c0: 8ec6 723d 2fbd 923c a3eb 88bc bfec d13d
000003d0: 684d 81bd 9049 20bd 08fb e93d f509 8f3d
000003e0: f1c1 d1bc 8867 043a b681 bd3d f947 99bd
000003f0: 7a30 1e3d a724 ac3c 2ebe 843d 08e7 123e
0.022144029 0.0553416 -2.3028168e-05 0.013047176 -0.006113748 0.015276012 0.06685396 0.039731342
-0.018580122 0.061136365 0.02972695 0.079759486 -0.008566498 0.02777526 -0.042199 0.0042364304
0.0070286277 0.08324331 0.01733136 -0.07229984 -0.075709 0.096720286 0.058562007 -0.03968658
0.09901926 -0.040511213 -0.019293793 0.009413016 0.01440465 -0.011513389 0.025847986 0.00552587
-0.06165293 -0.06925683 -0.0010632986 0.027681902 0.057155535 0.08552656 -0.042250272 0.021925649
0.07627672 0.054075062 -0.024429679 -0.004391551 0.07683495 0.06269782 0.040166385 -0.040784355
0.053091202 0.04605054 0.17748414 -0.034786828 -0.032199174 -0.047441084 -0.025660336 -0.05996585
0.06557225 -0.059738237 -0.033130202 -0.005318015 0.08721103 -0.002566277 -0.05435512 0.19854783
-0.117175914 0.09790288 0.06845476 -0.046003405 0.09722581 -0.033130184 -0.08245705 -0.04359096
0.11182966 0.0037547818 -0.08597031 -0.0700371 0.0322441 0.010964918 -0.0056504947 -0.046273526
0.06429847 0.001959577 0.010933423 0.007499777 0.062456552 -0.014546341 0.08857343 0.09692035
-0.013880265 -0.035998017 -0.072115116 0.061512083 -0.0024351315 -0.08036481 0.07447704 0.06492075
-0.059838887 0.042326372 0.05342051 -0.057398975 -0.005419389 -0.076845385 0.05139409 -0.08791556
0.046493955 0.083875984 0.0448082 -0.028987708 0.053739943 -0.076088086 -0.032084327 0.093083285
-0.022372426 0.061266378 -0.055970687 0.012052476 -0.09841674 -0.013203544 -0.07998798 0.06701841
0.075424634 0.03237832 0.07699287 0.09143447 0.06303601 0.15587394 0.087990075 0.07029959
-0.01470266 0.004961561 0.11073646 0.08389187 0.05168609 0.04302775 -0.030852772 0.085178815
0.08424599 0.021366987 0.028209629 0.13497558 0.10205966 0.09247457 0.06779202 0.048583668
-0.023118073 0.10437085 -0.016833447 0.15583977 0.13131964 0.029847011 0.029755887 0.025121093
0.026316259 0.049133163 -0.022087384 -0.030548217 0.10383763 -0.067178816 0.039916825 0.008141076
-0.038128577 0.13428003 0.03523553 0.0682128 0.14775373 0.05757909 -0.0016970452 -0.03932598
0.012954513 0.15066 0.009506097 0.109519444 -0.001813627 -0.005423971 0.13995746 0.09522212
0.0103484625 0.051277768 0.089584395 0.14023575 0.089835756 -0.0011239537 0.1408301 -0.005691371
-0.0118539985 0.03696195 -0.033156384 0.077709705 -0.054810856 0.11848663 -0.014433499 0.026739294
0.103689246 0.113094665 0.07665933 0.07467343 0.06688755 -0.037584644 -0.056413572 0.12417343
0.088171855 -0.07148372 0.08141819 0.10780996 0.08636579 0.031420376 -0.0011739916 0.058948927
0.00075711973 0.035868425 0.060220495 0.029455474 -0.034289375 0.061191943 -0.01993791 0.022785991
0.073241554 0.059763514 -0.024853 0.06391131 -0.062356755 0.072582394 0.04575056 0.04620204
0.057163972 0.08697828 0.124704614 -0.091150455 0.047420938 0.013305614 -0.07042238 0.008831796
0.06443226 -0.10253337 0.039634902 0.08968518 0.098643504 0.0021075225 0.0726706 0.012416386
0.059271388 0.017912475 -0.016713923 0.10250234 -0.06313592 -0.039132655 0.114248335 0.06984321
-0.025605174 0.0005050828 0.09253256 -0.07484431 0.03862045 0.021013571 0.064815864 0.14345944

encoder.gru.bias_hh_l0 f4 [384]
00000000: cea7 993d a94c c23d 7df6 56bd a871 8e3d
00000010: c2a3 c63d 15fe 9e3d ffd0 233d 3809 603d
00000020: b915 773d 3567 943d 5ebb 84bd 6722 5abd
00000030: c2e5 64bd 3b07 cdbc 0561 5a3c 6b11 0a3e
00000040: a2ff 1b3e 125c 8b3d 0ed0 e23b 5a7a 7dbd
00000050: ac08 3ebc bde0 8cbc 710d 253d 8065 dcbd
00000060: ada4 c73d 75be 923d d47f 9c3d ec88 e23d
00000070: aad6 29bd 1a53 acbb 33a5 073d ccdb f53c
00000080: 2b4a 26bd 1b92 b738 c628 90bd 2af9 f7bc
00000090: dd1c 903d d918 9c3d f4bb 29bd 1452 5e3d
000000a0: f303 6dbd f07a 903d 2763 ab3d a48b 2d3c
000000b0: aa97 0e3d f7ac 48bd a383 bf3d 54e4 ba3d
000000c0: 0b49 d93d d353 373d 8d90 593d f42d b53b
000000d0: f2c6 93bc b51b 863d e031 183d a38f a7bd
000000e0: 0c5c bd3c 4d4f ffbd 5236 5b3c 3bb2 56bd
000000f0: dcb5 ce3d 3edd ae3d 6759 bebd b357 273e
00000100: 30bb 93bd 7890 dc3d eb00 94bd df3a 96bd
00000110: 0f98 433d 2d97 a13b ec80 44bd dff1 cf3c
00000120: a143 3d3d 8917 953d 1866 9d3b 59a5 4c3d
00000130: ce60 843d 42e1 f23d 529b 14bd c116 e73c
00000140: d34c e6bc b5cd 813d 834b a1bd cb53 653d
00000150: f9e2 d03d 12c1 c83d 325a 493c b04e be3d
00000160: feec 893d e814 813d 1adf 5b3c 9222 713d
00000170: e6eb 6fbd e7cf 9dbd 73ec 35bd 3599 f4bc
00000180: 4600 14bc 6748 543d 19d5 21bd cbab 143d
00000190: 85e7 19bd 3eeb 213d fb3f 94bd 4806 853d
000001a0: 3a64 0fbd e6a6 353d 15b1 683d d85b 3a3d
000001b0: 6e9d 773c b6d7 36bc 633f 073d 3cf8 813d
000001c0: 6c68 b03d da1c 323d 2954 243c e66c 70bd
000001d0: 22ca 7fbd e97b ff3c aeb0 e2bd de22 0e3d
000001e0: 3b78 dd3b beef bdbc e6e7 983d d6f7 89ba
000001f0: d534 a13d 4b43 873c 0954 6e3d 207b 103d
00000200: 702a e9bb 5def 963c d268 e43d 3392 e23c
00000210: 1b05 ff3c 9e20 ea3d 6203 88bd 47be f03d
00000220: c595 a9bc 73a3 8cbd ce9a b13d ec94 e63d
00000230: 27f6 163b 276e 1c3e 2efe 853d 37db 093d
00000240: 68fa af3d 1302 fb3d 31f7 3f3c 5c8a 9b3d
00000250: 76b2 e23d 2f18 96bb 2096 183d 148a a73d
00000260: c2eb 133d 464c 223c 202f 6dbc f01e b53d
00000270: b0b3 b23d 8120 dd3c 3c09 553d 7824 953d
00000280: f5a1 883d f3dc 40bc 6878 f33c df0a 023e
00000290: 9cb6 993d e6db 6e3c db29 f23d 7874 e5bc
000002a0: 8c59 fb3d e947 c03d b962 163d 052e 82bc
000002b0: 9d00 053d 86a6 fb3d 1293 c73b 0ab6 d93c
000002c0: 383f b1bc a420 81bc e4dc 5bbd a401 df3d
000002d0: 938f d93d 9c48 c93d 0e97 ff3c c213 843d
000002e0: f074 a83d 32b1 10bb 2bfe 663d 7888 00bc
000002f0: e373 e3bc be53 953b 65f2 31bc 5a5f 4d3d
00000300: b914 363e 7847 1a3d c048 d63d 4ffe e43d
00000310: b2b7 fb3c be02 d73d 7d46 893c 4fc8 983d
00000320: 5dcb 3e3d e6ae 50bd 4a5b 7cbc 6e9b 443d
00000330: dbb8 1a3e d1a2 953d 119d 783d 7dfa 373d
00000340: 94c2 7e3d d01d 8c3d 44d8 d93d 3d44 35bd
00000350: fc85 b63d cf40 9c3d baef e53d 092d 183d
00000360: 2dec 013e a421 143d f33e b83d e30e db3d
00000370: 9d26 703d 8e7d 073e a99d 563d e2c1 32bd
00000380: 6b27 0abd b375 41bd 26ec 033d 4d84 843d
00000390: 4f96 e53b 0e3c 64bc d340 5bbd 4510 d2bc
000003a0: 971a 153d 515a 6fbd 51a0 b5bd c9d3 233d
000003b0: 0221 c93d fe4d 2f3e ba26 683d 9366 183e
000003c0: 8d2f 973d 4a1f 903d 198e b43b 7328 10bd
000003d0: 5d02 353b c9fe 033e de38 b13d efa2 b83b
000003e0: 462b 51bc c087 903d d2f2 d53d 16cb 05bd
000003f0: 521f 91bd 4610 863d 470e ad3d df4e 0c3e
0.07502709 0.09487278 -0.052481163 0.06955272 0.09699203 0.07763306 0.039994236 0.05469629
0.06032345 0.07246248 -0.0648105 -0.053255465 -0.055883177 -0.025027862 0.013328795 0.13483207
0.15234235 0.068046704 0.0069217747 -0.06188426 -0.011598747 -0.017197007 0.04029602 -0.10761547
0.09748206 0.07165233 0.07641569 0.11061272 -0.041464485 -0.00525893 0.03311653 0.030012034
-0.040598076 8.753334e-05 -0.07039027 -0.030270178 0.07036755 0.07621927 -0.04143901 0.054277495
-0.057865094 0.070546985 0.08368521 0.010592375 0.034812607 -0.048993077 0.093512796 0.091255814
0.10609635 0.044757675 0.05311637 0.0055291597 -0.0180392 0.065482534 0.03715694 -0.081816934
0.02311518 -0.12466297 0.01337965 -0.052416068 0.10093281 0.08538292 -0.09294396 0.16342048
-0.072134376 0.10769743 -0.072267376 -0.073354475 0.047752436 0.0049313516 -0.047974512 0.025383888
0.046207074 0.072798796 0.0048034303 0.049962375 0.064637765 0.11859371 -0.036280937 0.028209092
-0.028112805 0.06338064 -0.07875731 0.055988114 0.101995416 0.0980245 0.012289571 0.09292352
0.06734656 0.06302816 0.013419891 0.05887086 -0.05857458 -0.0770567 -0.04441495 -0.029858211
-0.009033268 0.05182686 -0.039509866 0.036296647 -0.03757431 0.039530985 -0.07238766 0.06495339
-0.035007693 0.04434862 0.056809504 0.045497745 0.015113218 -0.011159828 0.033019435 0.06346175
0.08613667 0.043484546 0.010029831 -0.058697604 -0.06244863 0.031187015 -0.11068855 0.03470122
0.0067587174 -0.023185607 0.07466106 -0.0010526131 0.07871405 0.01651158 0.05818561 0.03527367
-0.0071156546 0.018424684 0.111528054 0.027657604 0.031130364 0.114320025 -0.0664127 0.117550425
-0.020701298 -0.06867113 0.08672105 0.11258873 0.0023034902 0.15276395 0.065426216 0.033656325
0.08592683 0.12256255 0.01171665 0.07594749 0.11069195 -0.0045805196 0.037252545 0.08180633
0.036113508 0.00990588 -0.0144765675 0.088437915 0.08725679 0.026993038 0.05201076 0.072823465
0.06671516 -0.011771428 0.0297205 0.1269946 0.07505533 0.014578795 0.118243895 -0.028009638
0.12272939 0.09388716 0.036715243 -0.015891084 0.032471288 0.12287621 0.00609053 0.02657606
-0.02163659 -0.015762635 -0.053677455 0.10888985 0.10623088 0.09828302 0.031199958 0.06449081
0.08225429 -0.0022078273 0.056394737 -0.007845037 -0.02776522 0.004557102 -0.010861014 0.050139762
0.17781343 0.037665814 0.10463095 0.11181318 0.030727241 0.1049857 0.016757244 0.07460081
0.04658066 -0.050948046 -0.015402624 0.04799979 0.1510958 0.073064454 0.060696665 0.04491662
0.062197283 0.06841624 0.106369525 -0.04425453 0.08912274 0.07629549 0.11227365 0.037152324
0.1268775 0.036164895 0.089963816 0.10696199 0.058630574 0.13231489 0.05239645 -0.043641932
-0.033729 -0.047231387 0.03220763 0.06470547 0.0070064436 -0.013930334 -0.053528618 -0.025642524
0.03640231 -0.05843574 -0.088684686 0.039996896 0.09820749 0.17119595 0.056677558 0.14882879
0.073821165 0.07037218 0.0055101034 -0.035194825 0.0027619817 0.12890162 0.08653425 0.0056346576
-0.012766665 0.07057142 0.10446705 -0.03266438 -0.07086052 0.06546073 0.08449989 0.13701962

attention.main_fully_connected.weight f4 [64, 128]
00000000: ec46 cebd c247 b1bd b7d5 193d 69ef a83d
00000010: 8f2e 3dbe f13a 07bd 5cfa 37bd 536a f73c
00000020: 2000 54bc 6023 be3c 79f8 e6bd c1d1 013e
00000030: 314a 3b3d fff7 85bc 7724 733d d2f8 9fbc
00000040: 00f0 c53d 4da1 3c3c c663 b5bc a048 48bd
00000050: 9bd6 c93d bfb0 e2bd 3226 cc3c 4b1c 80bd
00000060: 5200 3e3e 0d86 9d3c c6df 063e a471 fc3d
00000070: 78b0 d3bd 31c9 44bd a59a 593d 56e8 59bd
00000080: 0141 073d 5aec 8abd 046b 073e bef9 27be
00000090: 386f 20be 0a09 203d 1a37 11bb a12b bc3d
000000a0: 8142 823d 7fb5 b73c 1c9f 8dbb a1e5 ba3d
000000b0: 3401 af3b 3ed3 a8bc dee4 2fbc acdf 153d
000000c0: f9cd 653d 440c bd3d 9e46 8fbd 57e5 07bd
000000d0: 4958 533d f185 d83b 2410 e63d 8724 323e
000000e0: 69d2 913b 7f9c 893d 3fca 5a3e e30f ffbd
000000f0: d762 c8bd ce8c 8cbd e157 e93d 070e 3bbe
00000100: f1b2 20be 6327 0e3e 4666 2abc d7c2 593d
00000110: bb40 fa3d b681 283d 9154 e3bd d461 e8bd
00000120: 0aaa bebd 4cb7 4fbd 4efd 213e 723b 333d
00000130: 4713 a4bd c3bb d8bb 6ca9 6dbd 4441 243d
00000140: d298 b0bc 9949 0cbe cd6a 363d 2f43 103e
00000150: 87e2 963d 7867 48bd b03f bebd c01f 78bd
00000160: a358 71bb f2a3 2cbb a235 83bd 9bf9 203d
00000170: 5e2d 803d f5ac ccbd 420d a7bc 41a1 0cbe
00000180: be5a cfbc 92ae 76be dac5 573d 5504 01be
00000190: cafa a8bd 8d33 4bbc 516c 3d3e 4a55 98bd
000001a0: 122b ad3c 99fd b33d 6ad4 17bd 8b21 96bd
000001b0: 3850 253e aa95 043c d3e8 3cbe a633 a93c
000001c0: 23b1 f33d 29b9 b2bd a093 c3bd 18e2 41bc
000001d0: 9c47 b53c 3fd8 9c3d 9436 c03d a266 f6bd
000001e0: 7226 3ebd 3533 353e 7504 8f3d 79a2 05bd
000001f0: 92ef 7a3d 07a0 f1bd 5b18 4f3d 5902 fabd
00000200: 6289 2bbd 684d 87bc cf8d 963c 14de 203e
00000210: e416 39be e5e1 5bbd 6084 ccbd b2af debc
00000220: 23db 03bd 1f13 8a3d 4e5b c7bd 7ff8 193e
00000230: a4a4 923d 6626 92bd cfec 22bd 5911 d5bc
00000240: e7c4 af3b 8bdb 9abd 9ea0 5c3d 9c2c de3c
00000250: b42f 02bd 32f4 43bd 99de a53d 2561 2b3d
00000260: 64c1 8b3d 99b7 f3bb 06c3 373d 3e00 923c
00000270: c325 1139 50bb 40bd b724 99bd 4fac 9b3c
00000280: 7e54 ee3d be76 553c 62c8 453e 9563 aabd
00000290: 99ec 59be abb7 2bbc d4d6 8fbb e70c 9c3d
000002a0: 7499 2cbd d494 51bc cb66 e83d d6a9 603d
000002b0: 449a 1cbc d623 883d f789 243d e51b 2a3d
000002c0: 2b38 eb3c 376a 313e b13d b1bc c2a3 a6bd
000002d0: c09d 8c3d 1b67 9bbd 914c f63d 9867 1d3e
000002e0: 6f8e 943d 9e25 3e3c 7cc5 333e 2651 0dbe
000002f0: 37b7 813b 18ed 31bc b072 7c3d b7e4 1abe
00000300: 3a6a 26be 5234 df3d 8ade 953d b603 8b3d
00000310: 6990 d23d a0ed ba3d 88ad 96bc 43ca c4bd
00000320: 5cc6 1dbe 094b debd e4b4 063e 9d3f 75bd
00000330: 115a 04be a81e a0bd c5ca 7d3c 6232 94bd
00000340: 5bf3 16bb cf96 6abd 870d 6dbd 6f2f 9c3d
00000350: 0db8 9a3d ed9d 6cbd e587 293c 533f d2bd
00000360: 7905 11bd 0cf8 9b3d 116f 07bc 6d2f 0fbd
00000370: deca 033e 0f2b 86bd 916d d13c b4b1 edbd
00000380: 7d30 7fbd 2532 c2bd 0ca7 80bd f865 57bd
00000390: 2c07 7d3c 5e63 593d 1092 803d e727 01bd
000003a0: 5611 5ebd 3b9c d63d 442b a3bc eacb 41ba
000003b0: 6db0 e93d ade8 013d 35e9 e7bd ddc6 c0bd
000003c0: 68e3 2a3e fcf4 f9bb a0d5 2d3d dd54 3c3d
000003d0: 0b45 13bc 5fc5 ee3d 3151 203d 9488 6ebd
000003e0: 11f9 cc3d 4af6 893d f36c b43d e734 c63d
000003f0: ebbc 8d3d f961 d0bd d876 d23d 589b a1bd
-0.10072121 -0.08656265 0.03755733 0.08248789 -0.18474792 -0.033015195 -0.044916496 0.030202067
-0.012939483 0.023210227 -0.11277861 0.12677671 0.04572505 -0.016353605 0.059360947 -0.019527826
0.09664917 0.0115130665 -0.022142302 -0.048897386 0.09855386 -0.11068868 0.024920557 -0.062553965
0.1855481 0.01922896 0.131713 0.12326363 -0.10336393 -0.048043434 0.053125996 -0.05320009
0.033020977 -0.06783362 0.13224417 -0.16403863 -0.15667427 0.03907112 -0.0022158087 0.09188009
0.06360341 0.022425411 -0.004321946 0.091258295 0.0053407196 -0.02060854 -0.0107357185 0.036590263
0.056104634 0.09230855 -0.06995891 -0.0331777 0.051597867 0.006607764 0.11233547 0.17396747
0.0044501317 0.067193024 0.21366213 -0.12454202 -0.09784477 -0.06862794 0.11393715 -0.1826707
-0.1569326 0.13882212 -0.01040036 0.05316433 0.122193776 0.041139327 -0.11100114 -0.11346784
-0.09309776 -0.050711915 0.15819284 0.043757863 -0.08011489 -0.00661418 -0.0580229 0.040101305
-0.021557245 -0.1369995 0.044535447 0.14088129 0.073674254 -0.0489268 -0.09289491 -0.060577154
-0.0036826513 -0.0026342836 -0.06406714 0.039300542 0.06258653 -0.099939264 -0.020392064 -0.13733388
-0.025311824 -0.24090031 0.05267892 -0.12599309 -0.08250959 -0.012402427 0.1849835 -0.074381426
0.021138702 0.08788604 -0.03706781 -0.073306166 0.16143882 0.008092323 -0.1844819 0.02065451
0.118990205 -0.08726723 -0.095496416 -0.01183369 0.022128873 0.07658433 0.0938541 -0.120312944
-0.046423383 0.17695315 0.06983272 -0.03262565 0.06126363 -0.11798101 0.050560337 -0.12207479
-0.041879065 -0.016516402 0.018378166 0.15709716 -0.18075138 -0.053682227 -0.09986186 -0.027183387
-0.032191407 0.06741928 -0.09734212 0.150362 0.07160309 -0.0713623 -0.03977662 -0.026009249
0.0053640488 -0.07561406 0.053864114 0.02712088 -0.031783774 -0.047840305 0.08099098 0.04184069
0.06823996 -0.007437658 0.044863723 0.017822381 0.00013842345 -0.047053635 -0.07477706 0.019003062
0.11637209 0.013028799 0.19314721 -0.08319775 -0.21281661 -0.010480802 -0.004389623 0.076196484
-0.04213853 -0.012791831 0.11347731 0.05484947 -0.009558264 0.0664746 0.040170636 0.04153051
0.028713306 0.17325674 -0.021635862 -0.08136703 0.06866026 -0.07588025 0.12026323 0.15371549
0.072537296 0.011605648 0.17555803 -0.13800487 0.0039586085 -0.01085975 0.061632812 -0.1512631
-0.1625146 0.10898651 0.073178366 0.06787817 0.1028145 0.091273546 -0.018393293 -0.09608891
-0.154077 -0.108541556 0.13154942 -0.05987512 -0.12924983 -0.07818347 0.015490239 -0.07236172
-0.0023033235 -0.05727273 -0.05787423 0.07626235 0.07554636 -0.057767797 0.010347341 -0.102659844
-0.03540561 0.076156706 -0.008266226 -0.034957338 0.12870356 -0.065511815 0.02556494 -0.1160616
-0.0623021 -0.094822206 -0.06281862 -0.05258748 0.015443604 0.05307328 0.06277859 -0.031532194
-0.05421575 0.10479017 -0.019918092 -0.0007392751 0.11410604 0.031716038 -0.113237776 -0.0941293
0.16688311 -0.0076280814 0.042440057 0.04597937 -0.008988629 0.11658739 0.03913993 -0.05823572
0.10008443 0.06736429 0.08809843 0.09678059 0.06920799 -0.10174937 0.10276574 -0.078909576

attention.main_fully_connected.bias f4 [64]
00000000: 1435 97bd 38ba 3ebe 2187 4c3d b58a 2abe
00000010: a787 88be 6a39 67be bf8b 0f3c cd59 913e
00000020: 9758 9dbe 0274 92bd 19b1 ccbd 9e01 91be
00000030: 0021 58be 6029 22bd 5e3a 793d f1fc c6bd
00000040: 0efd e5bd 8214 18be 474c f2bd 2161 9bbd
00000050: e916 a2be 1b01 89be 1d88 38be 3813 a1be
00000060: 0e7c 25be 4e2f 54bc 85d6 65be 7f56 7dbe
00000070: 9bea 91be 74dc 91bd 720e 3abe 0c6c eb3e
00000080: 6e3b e03d e2b3 bfbd 9104 233d 57d6 3abd
00000090: 29bb fa3d 250e 87be 30e1 33bd 0721 37be
000000a0: 3e2d 3cbe 5b83 7cbe 1c34 21be 777d 24bd
000000b0: 2a25 efbd f26d cdbc 2d69 58bd cea7 bdbe
000000c0: 21ca aa3d 1b4f 76bd 9ab4 6fbe bc27 64bd
000000d0: 8014 0abe 9522 5abe 44a3 3bbe 2ae7 7bbe
000000e0: 8a72 1abe 81f4 fcbd b64f bebe 7648 5c3e
000000f0: 8c9f 86be 72ff 02be 7288 c93c fd58 6b3d
-0.07383171 -0.18625724 0.049933556 -0.16654475 -0.26665995 -0.22580495 0.008761345 0.28388825
-0.3073165 -0.07151033 -0.09994716 -0.28321546 -0.21106339 -0.03959024 0.06084668 -0.097162135
-0.11229907 -0.14851573 -0.11830955 -0.07586885 -0.31658104 -0.26758656 -0.18020673 -0.31459975
-0.16160604 -0.012950731 -0.22445114 -0.24740027 -0.28499302 -0.07122126 -0.18169573 0.4598087
0.10948835 -0.09360482 0.039799277 -0.045614567 0.12242729 -0.2637798 -0.043915927 -0.17883693
-0.18376634 -0.24659483 -0.15742534 -0.040158715 -0.1167701 -0.02507684 -0.05283468 -0.37042087
0.08339334 -0.060134035 -0.23408738 -0.055701956 -0.13484383 -0.21302254 -0.18324 -0.24599901
-0.15082756 -0.12351323 -0.3717019 0.21512017 -0.262936 -0.12792757 0.024601195 0.057457913

attention.v.weight f4 [1, 64]
00000000: d2bd 3dbe beb2 4ebe 289f 97be 4d9e b9bd
00000010: 381a 9f3d c9c9 babd e914 9dbe b54c 49bf
00000020: f1d1 873b 7b67 5dbe 2087 2ebe ce11 133e
00000030: c816 f43d 0b30 8cbe 79d9 d1be 7bad 36be
00000040: 6c21 66be 60b4 7bbe 9283 0fbe 5596 263f
00000050: 650c da3c 56ad 0bbd 04b7 4dbd f387 9c3d
00000060: a37e 813d e570 7abe 1674 b63c 54a8 a83d
00000070: 716b a63d 310a 30be 72a0 6c3d 90b4 9abf
00000080: 1d47 3bbf ef27 5ebe b7b1 bcbe f272 5ebe
00000090: 6c17 7e3f c513 933d b6aa 5ebe 4221 59be
000000a0: 8fb6 27be e0a5 acbb 3bfb 20be f61a 7bbe
000000b0: c0d9 65be 77ce 8bbe b63e 44be 69fe a73d
000000c0: be5b bdbe 0ced 5abe 4a3a acbb dffa eb3d
000000d0: e145 57be 9a96 19be caa5 b63d 1342 d5bd
000000e0: b7f9 443e 42d8 0ebe 1c1b 183d f9cc 23bf
000000f0: f1f3 8bbd 2bba 49be 7cf8 89be b70b 493f
-0.18529442 -0.20185372 -0.29613614 -0.090633966 0.07768673 -0.09120519 -0.30680016 -0.7863267
0.0041449 -0.21621506 -0.17043734 0.1436226 0.11918408 -0.27380404 -0.4098623 -0.17839615
-0.22473687 -0.24580526 -0.14015034 0.6507314 0.026617238 -0.034100853 -0.050223365 0.07643118
0.06322982 -0.24457128 0.022272151 0.08235231 0.081259616 -0.17191388 0.0577702 -1.2086353
-0.73155385 -0.21694921 -0.36854336 -0.21723536 0.9925449 0.07181505 -0.21744809 -0.21204093
-0.16378234 -0.0052687973 -0.15720837 -0.24522004 -0.22446346 -0.27305958 -0.19164547 0.08202822
-0.36984056 -0.21379489 -0.005255972 0.11522459 -0.2102275 -0.14998856 0.089183405 -0.10412993
0.19235884 -0.13949683 0.03713523 -0.6398464 -0.068336375 -0.19699924 -0.2694739 0.785335

attention.final_fully_connected.weight f4 [2, 128]
00000000: d02f 0dbc 6f24 82bd 2914 0ebb aedc f1bd
00000010: ed5e 73bb c763 babd 7571 00be 8e50 35bd
00000020: a387 94bd b397 e23c 2336 08be 0354 10be
00000030: 2d1a e2bc ac9c 7cbc a71c 01bd 13ec 57bd
00000040: 0689 6abd 0372 8f3e 113a 753d 8ccf cdbb
00000050: be50 b8bd eeb0 5ebd f997 1f3e 03ed 0b3e
00000060: e938 d3bd d7e5 9f3d 8285 02be 7d53 d6bd
00000070: 2275 643d d6ee 32be 05c2 603e 9168 273e
00000080: bfc3 7cbe 6ce1 8abd 421c 2cbe 8aa4 cdbd
00000090: a63a f23d 51eb 90bd a29d 3cbd 8f5d 22be
000000a0: 5f86 53bd 271d 11be ba47 f03d 2cee f8bc
000000b0: a757 9fbd 0430 cfbd 872b 29bc 2dc1 2c3d
000000c0: 4b77 69be a896 90be 10eb 963e 96aa 55be
000000d0: 9cf4 2fbe 2306 08be ab50 85bd 9de8 1ebe
000000e0: 8d5c 133e 7c53 b1bd fd81 b9bd 37db e5bd
000000f0: 3592 6c3e 1765 243e 3a6f aebd 0b9a 8f3e
00000100: 0aad 52bd f04a 0e3e bf24 733d 671a cfbd
00000110: de79 f7bc 5652 5ebe 0ad2 0d3e cb6e 373d
00000120: 67e5 15bd 7891 6b3e 4643 d93d 1db5 9e3d
00000130: e267 973c 85df eabd 84e4 dc3d b478 2abe
00000140: 3d19 983d 04ee fcbc 0546 fa3c c73d 98bd
00000150: 72eb dbbd 94d9 76ba 9a16 4a3e d53d 04bd
00000160: d595 02be 96fd 853d 20ce 403e f434 a23d
00000170: bb14 66be e9d3 6fbd f77d 1a3e 2fc4 133e
00000180: 2806 fabb a52d bcbd 2ee8 c5bb 13b3 143e
00000190: b93f 2cbe 5c26 6e3e dd7c adbd 4ecb 9f3d
000001a0: 3a4c 06bd ff4a 51be 0e56 b0bb 52d6 01be
000001b0: 42c5 4c3d e5d5 433e 2681 20be 5be2 083e
000001c0: 3ee5 933d 2fb9 df3d 460c f3bd 9e28 19be
000001d0: 86d1 9ebc 2c96 3a3d 5de5 08be f7cc 95bd
000001e0: 3f98 153e 58b1 903c 6e7b 30be 05da 83bc
000001f0: 50e5 06be 5384 303e d9b9 1bbe 1493 943b
00000200: 7b88 0ebe 9cf9 11be 695f 923d 3009 023e
00000210: ce96 573d 0f9e 603e 6779 1c3e db30 94bd
00000220: 18c0 bebd 644e cfbd 3511 853d 5412 fe3d
00000230: 8d14 fe3d 4732 e2bd 54a9 c03d fee3 413e
00000240: fc19 eabd bf12 f5bd e479 2dbc bf3f 25be
00000250: b739 9b3d c645 e3bd 2e2c 22be 72e8 ffbd
00000260: 5605 bc3d d7b0 e23d 5b99 c0bd a48a 8c38
00000270: c612 b7bd 1b2f 8e3d 4bb7 b9bd dac3 1f3c
00000280: a471 da3d ca76 393d 7ad6 aa3a bb02 de3d
00000290: 788f 88bd 3fc9 0cbe 50e8 cc3d ef13 f23d
000002a0: 652b 113e d740 693e 634d 4cbe 326f e73c
000002b0: 5436 373e a786 e73d df6a e73d 95c8 f9bd
000002c0: 9b07 183d 5840 613d f000 15bd 77bc 063e
000002d0: f2b5 c1bc dcf7 16be c6d8 0c3e 308a c53d
000002e0: 2726 fcbd c998 74bd f676 a23d e110 2b3e
000002f0: ef1e 6abd e822 acbd b5fd 6ebb 61b2 dd3b
00000300: 1f1e 153e 59c8 0fbe ef86 9abd 148a 273e
00000310: f68b 00be d7b4 ccb9 5794 b93d 47dd 55bd
00000320: 468b 073e 2d60 933d 3997 06be 543c aabd
00000330: 3834 e6bd e791 283e d12e 0b3e 98a3 363d
00000340: e495 b73d d6c8 033d aba1 22be 90f9 02be
00000350: 1573 a23d b458 afbd deee 91bd b0d2 333d
00000360: c74d 253e c9b0 e63d 4542 8fbd e933 1cbe
00000370: 8a91 253e 55c8 373e 6a1a 3abe f3ff 873d
00000380: 45dc 25be bb2f 753d 7f3f 083e fb9c 6a3d
00000390: a60f 13bc b8a0 38be 63ba a6bd 1e49 2f3e
000003a0: c40f 4ebd a0cc c03d 8319 113c c8f5 1d3e
000003b0: 4cd0 59be 032f 14be fa13 53bc f480 1abe
000003c0: 3d10 62be db1c 00be 81ee 1b3e a52d a33c
000003d0: 9019 1bbe 809a 56be f001 8f3d 604c 5f3e
000003e0: 111b 04be ce97 bc3d ac80 b63c b80d 1dbe
000003f0: 24bc 493d b065 26be 6b1f b03c c5d2 263e
-0.008617356 -0.063546054 -0.0021679497 -0.118096694 -0.0037135438 -0.09101062 -0.1254328 -0.044266276
-0.07252433 0.027660226 -0.13301902 -0.14094548 -0.027600372 -0.015418213 -0.031521466 -0.052715372
-0.057259582 0.28016672 0.05986983 -0.006280845 -0.08999775 -0.054367952 0.15585317 0.13664632
-0.10313589 0.0780751 -0.12746242 -0.10465143 0.05577577 -0.17473921 0.21949013 0.16348483
-0.24684046 -0.06781277 -0.16807655 -0.10041149 0.118275926 -0.07076133 -0.046048768 -0.15856002
-0.051641818 -0.14171277 0.11732431 -0.030387007 -0.0778039 -0.1011658 -0.010325319 0.042176414
-0.22799413 -0.28239942 0.29476213 -0.20865855 -0.17183155 -0.13283591 -0.06509527 -0.15518422
0.14390774 -0.086585015 -0.090579964 -0.112234525 0.23102649 0.16054188 -0.085173085 0.28047213
-0.051434554 0.13895774 0.059361216 -0.10112458 -0.030209478 -0.21711096 0.13849655 0.044783395
-0.03659573 0.2300471 0.106085345 0.07749388 0.018482152 -0.11468414 0.107857734 -0.16647607
0.07426689 -0.030875213 0.030550966 -0.07433658 -0.10738267 -0.0009416577 0.19735184 -0.03228553
-0.12752469 0.06542508 0.1882863 0.07920256 -0.22468846 -0.058551703 0.15087114 0.14430307
-0.0076301284 -0.091883935 -0.006039641 0.14521436 -0.16821183 0.2325682 -0.084710814 0.07802449
-0.03278754 -0.20438765 -0.0053813523 -0.12679413 0.049992807 0.19124563 -0.15674266 0.13367598
0.07221459 0.10923993 -0.11867575 -0.149569 -0.019387018 0.04555337 -0.13368745 -0.073144846
0.14608859 0.01766269 -0.17234585 -0.01609517 -0.13173413 0.17237978 -0.15207614 0.0045341346
-0.1391925 -0.14255375 0.07147104 0.12698817 0.052634053 0.21935295 0.15280686 -0.07235881
-0.09313983 -0.10122374 0.064974226 0.124058396 0.124062635 -0.11044746 0.09407297 0.18934628
-0.114307374 -0.11966466 -0.010588143 -0.16137598 0.075793676 -0.110972926 -0.15837166 -0.12495507
0.09180705 0.11068886 -0.0940425 6.701544e-05 -0.089391276 0.069425784 -0.090681635 0.0097512845
0.106662065 0.0452793 0.001303389 0.108403645 -0.066679895 -0.13748644 0.100052476 0.11820208
0.1417671 0.2277864 -0.19951396 0.028251264 0.17891818 0.1130498 0.11299681 -0.12196461
0.03711663 0.054993004 -0.036377847 0.13157831 -0.023646329 -0.14742988 0.13754568 0.09645498
-0.123119645 -0.05971602 0.07932846 0.16705658 -0.057158407 -0.08405095 -0.003646714 0.006765649
0.14562272 -0.1404127 -0.07545268 0.16361266 -0.12553391 -0.00039044648 0.09061497 -0.05221298
0.13236722 0.071960784 -0.13143624 -0.08312288 -0.11240429 0.16461907 0.13592078 0.04458961
0.08964136 0.032173954 -0.15881984 -0.12790513 0.079321064 -0.08561841 -0.071256384 0.0439021
0.16142951 0.11264188 -0.06995062 -0.15254177 0.161688 0.17947514 -0.18174139 0.06640615
-0.16197307 0.059859972 0.13305472 0.057278614 -0.008975899 -0.1803006 -0.08141019 0.17117736
-0.050308004 0.09414029 0.00885618 0.1542579 -0.21270865 -0.14471059 -0.012883181 -0.15088254
-0.22076507 -0.12511007 0.15227701 0.019919226 -0.1514647 -0.20957375 0.069827914 0.21806479
-0.1290095 0.09208642 0.022278152 -0.15337265 0.04925169 -0.16249728 0.021499356 0.1629134

attention.final_fully_connected.bias f4 [2]
00000000: 7a70 603d ce7f b53d
0.054794766 0.088622674
